DarkNet_19(
  (conv_1): Sequential(
    (0): Conv_BN_LeakyReLU(
      (convs): Sequential(
        (0): Conv2d(3, 32, kernel_size=(3, 3), stride=(1, 1), padding=(1, 1))
        (1): StraightThrough()
        (2): LeakyReLU(negative_slope=0.1, inplace=True)
      )
    )
    (1): MaxPool2d(kernel_size=(2, 2), stride=2, padding=0, dilation=1, ceil_mode=False)
  )
  (conv_2): Sequential(
    (0): Conv_BN_LeakyReLU(
      (convs): Sequential(
        (0): Conv2d(32, 64, kernel_size=(3, 3), stride=(1, 1), padding=(1, 1))
        (1): StraightThrough()
        (2): LeakyReLU(negative_slope=0.1, inplace=True)
      )
    )
    (1): MaxPool2d(kernel_size=(2, 2), stride=2, padding=0, dilation=1, ceil_mode=False)
  )
  (conv_3): Sequential(
    (0): Conv_BN_LeakyReLU(
      (convs): Sequential(
        (0): Conv2d(64, 128, kernel_size=(3, 3), stride=(1, 1), padding=(1, 1))
        (1): StraightThrough()
        (2): LeakyReLU(negative_slope=0.1, inplace=True)
      )
    )
    (1): Conv_BN_LeakyReLU(
      (convs): Sequential(
        (0): Conv2d(128, 64, kernel_size=(1, 1), stride=(1, 1))
        (1): StraightThrough()
        (2): LeakyReLU(negative_slope=0.1, inplace=True)
      )
    )
    (2): Conv_BN_LeakyReLU(
      (convs): Sequential(
        (0): Conv2d(64, 128, kernel_size=(3, 3), stride=(1, 1), padding=(1, 1))
        (1): StraightThrough()
        (2): LeakyReLU(negative_slope=0.1, inplace=True)
      )
    )
    (3): MaxPool2d(kernel_size=(2, 2), stride=2, padding=0, dilation=1, ceil_mode=False)
  )
  (conv_4): Sequential(
    (0): Conv_BN_LeakyReLU(
      (convs): Sequential(
        (0): Conv2d(128, 256, kernel_size=(3, 3), stride=(1, 1), padding=(1, 1))
        (1): StraightThrough()
        (2): LeakyReLU(negative_slope=0.1, inplace=True)
      )
    )
    (1): Conv_BN_LeakyReLU(
      (convs): Sequential(
        (0): Conv2d(256, 128, kernel_size=(1, 1), stride=(1, 1))
        (1): StraightThrough()
        (2): LeakyReLU(negative_slope=0.1, inplace=True)
      )
    )
    (2): Conv_BN_LeakyReLU(
      (convs): Sequential(
        (0): Conv2d(128, 256, kernel_size=(3, 3), stride=(1, 1), padding=(1, 1))
        (1): StraightThrough()
        (2): LeakyReLU(negative_slope=0.1, inplace=True)
      )
    )
  )
  (maxpool_4): MaxPool2d(kernel_size=(2, 2), stride=2, padding=0, dilation=1, ceil_mode=False)
  (conv_5): Sequential(
    (0): Conv_BN_LeakyReLU(
      (convs): Sequential(
        (0): Conv2d(256, 512, kernel_size=(3, 3), stride=(1, 1), padding=(1, 1))
        (1): StraightThrough()
        (2): LeakyReLU(negative_slope=0.1, inplace=True)
      )
    )
    (1): Conv_BN_LeakyReLU(
      (convs): Sequential(
        (0): Conv2d(512, 256, kernel_size=(1, 1), stride=(1, 1))
        (1): StraightThrough()
        (2): LeakyReLU(negative_slope=0.1, inplace=True)
      )
    )
    (2): Conv_BN_LeakyReLU(
      (convs): Sequential(
        (0): Conv2d(256, 512, kernel_size=(3, 3), stride=(1, 1), padding=(1, 1))
        (1): StraightThrough()
        (2): LeakyReLU(negative_slope=0.1, inplace=True)
      )
    )
    (3): Conv_BN_LeakyReLU(
      (convs): Sequential(
        (0): Conv2d(512, 256, kernel_size=(1, 1), stride=(1, 1))
        (1): StraightThrough()
        (2): LeakyReLU(negative_slope=0.1, inplace=True)
      )
    )
    (4): Conv_BN_LeakyReLU(
      (convs): Sequential(
        (0): Conv2d(256, 512, kernel_size=(3, 3), stride=(1, 1), padding=(1, 1))
        (1): StraightThrough()
        (2): LeakyReLU(negative_slope=0.1, inplace=True)
      )
    )
  )
  (maxpool_5): MaxPool2d(kernel_size=(2, 2), stride=2, padding=0, dilation=1, ceil_mode=False)
  (conv_6): Sequential(
    (0): Conv_BN_LeakyReLU(
      (convs): Sequential(
        (0): Conv2d(512, 1024, kernel_size=(3, 3), stride=(1, 1), padding=(1, 1))
        (1): StraightThrough()
        (2): LeakyReLU(negative_slope=0.1, inplace=True)
      )
    )
    (1): Conv_BN_LeakyReLU(
      (convs): Sequential(
        (0): Conv2d(1024, 512, kernel_size=(1, 1), stride=(1, 1))
        (1): StraightThrough()
        (2): LeakyReLU(negative_slope=0.1, inplace=True)
      )
    )
    (2): Conv_BN_LeakyReLU(
      (convs): Sequential(
        (0): Conv2d(512, 1024, kernel_size=(3, 3), stride=(1, 1), padding=(1, 1))
        (1): StraightThrough()
        (2): LeakyReLU(negative_slope=0.1, inplace=True)
      )
    )
    (3): Conv_BN_LeakyReLU(
      (convs): Sequential(
        (0): Conv2d(1024, 512, kernel_size=(1, 1), stride=(1, 1))
        (1): StraightThrough()
        (2): LeakyReLU(negative_slope=0.1, inplace=True)
      )
    )
    (4): Conv_BN_LeakyReLU(
      (convs): Sequential(
        (0): Conv2d(512, 1024, kernel_size=(3, 3), stride=(1, 1), padding=(1, 1))
        (1): StraightThrough()
        (2): LeakyReLU(negative_slope=0.1, inplace=True)
      )
    )
  )
  (conv_7): Conv2d(1024, 1000, kernel_size=(1, 1), stride=(1, 1))
  (avgpool): AdaptiveAvgPool2d(output_size=(1, 1))
)